model_recomm_system/model-citcat-new(xx).tflite (tflite, 213012 bytes, 20 tensors)

BiasAdd/ReadVariableOp f4 [19]
0	0x3b3810cd	0.0028086186
1	0xb978d090	-0.00023728819
2	0xbb441afc	-0.002992331
3	0xbb405c87	-0.0029352026
4	0xbb414ede	-0.0029496471
5	0xbb43ec0c	-0.0029895334
6	0xbb42ca9d	-0.0029722818
7	0xbb43cc85	-0.0029876542
8	0xbb44d8de	-0.003003649
9	0xbb444c58	-0.002995273
10	0xbb40deb5	-0.0029429619
11	0xbb44b075	-0.0030012403
12	0xbb42f002	-0.0029745107
13	0xbb4095d6	-0.0029386184
14	0xbb4276c7	-0.0029672848
15	0xbb44a6de	-0.0030006687
16	0xbb43e47c	-0.0029890826
17	0xbb44af4b	-0.003001171
18	0xbb450ee8	-0.00300687

BiasAdd/ReadVariableOp1 f4 [64]
0	0x3b339b52	0.002740581
1	0xbb347662	-0.0027536382
2	0xbb307f62	-0.0026931395
3	0xbb4263ae	-0.0029661465
4	0x3b3d5a1f	0.0028892828
5	0x3b3a0f39	0.002839042
6	0xbb3902c9	-0.002823042
7	0x3b46b7d0	0.0030321963
8	0xbb323892	-0.0027194363
9	0x3b132c51	0.0022456835
10	0xbb302b60	-0.0026881322
11	0x3b260ed9	0.002533844
12	0xba3ffc3b	-0.0007323657
13	0xbb189cd9	-0.0023286848
14	0xbb3469e6	-0.002752894
15	0xbb3a923d	-0.0028468512
16	0x3b38cfdd	0.0028200068
17	0xbb32e785	-0.002729864
18	0x3b3e102b	0.0029001336
19	0xbb28db4c	-0.0025765477
20	0xbb259fdf	-0.0025272293
21	0xbb11f075	-0.0022268568
22	0xbb223739	-0.0024752154
23	0xbb338ea9	-0.0027398265
24	0x3b311006	0.0027017607
25	0xbb30a06b	-0.0026951085
26	0x3b3a9d4a	0.00284751
27	0xbb2ed334	-0.002667618
28	0xbb299270	-0.0025874637
29	0xbb1b9410	-0.0023739375
30	0xbb2dbe24	-0.0026511038
31	0x3b27c724	0.0025600875
32	0x3b39b3ec	0.0028336002
33	0xbb260b85	-0.0025336456
34	0x3ac0dadd	0.0014713664
35	0xbb3e7148	-0.002905922
36	0xbb33c1f9	-0.002742885
37	0x3b345bda	0.0027520568
38	0xbb0e3ec0	-0.0021704882
39	0x3b45b0c8	0.0030165184
40	0xbb2d7ac9	-0.002647089
41	0xbb3d7a5a	-0.0028912039
42	0xbb325877	-0.0027213374
43	0xbb1cf374	-0.002394882
44	0xbb2ab05c	-0.002604506
45	0x3b304ba2	0.002690055
46	0xbaff6009	-0.0019483577
47	0xbb25999e	-0.0025268565
48	0xbb270041	-0.002548233
49	0x3b3cd4a3	0.0028813265
50	0xbb39bd4b	-0.0028341587
51	0xbb30df77	-0.0026988664
52	0xba1b4434	-0.0005922944
53	0x3acd3089	0.0015654723
54	0x3b3abbce	0.0028493288
55	0xbb30c827	-0.002697477
56	0xbb0dde22	-0.0021647294
57	0xbb2d720f	-0.002646569
58	0x3b3b643e	0.0028593685
59	0xbb2d3042	-0.002642647
60	0xbb1bf453	-0.0023796752
61	0x3b40ff9d	0.0029449232
62	0xbb1856b9	-0.002324505
63	0x3b2a4060	0.0025978312

BiasAdd/ReadVariableOp2 f4 [64]
0	0xbb2a1f5c	-0.0025958633
1	0x3b31a429	0.0027105904
2	0xba641a08	-0.0008701389
3	0xbb0f8c6a	-0.0021903762
4	0x3a4305cd	0.0007439524
5	0x3b2559a0	0.0025230423
6	0xbb1557f5	-0.0022788022
7	0xbb20bb7f	-0.002452582
8	0x389479a3	7.0798465e-05
9	0xba8a1c12	-0.001053693
10	0x3b11671b	0.00221867
11	0xbb307856	-0.0026927195
12	0x3b148289	0.0022660813
13	0xbb1b0c05	-0.0023658287
14	0xb9b377d9	-0.00034230834
15	0xbb165f9f	-0.0022945178
16	0xbb18fb43	-0.0023343123
17	0x3b401fd0	0.0029315837
18	0x3a9247b6	0.0011160288
19	0x3b346a1e	0.002752907
20	0x3b3e5608	0.0029042978
21	0xbb11dd7c	-0.002225726
22	0x3b37e9a5	0.0028062847
23	0xbb2d2057	-0.002641698
24	0xbb0c9156	-0.0021448932
25	0x3b259447	0.0025265382
26	0xbb327525	-0.0027230468
27	0xba89ccf7	-0.0010513355
28	0x3b2a15a4	0.002595284
29	0x3b06c5fa	0.002056478
30	0x3b398504	0.0028308043
31	0xbaee378e	-0.0018174516
32	0xbb22faa7	-0.0024868639
33	0xbb0bc2a2	-0.0021325727
34	0x3b3495b7	0.0027555057
35	0xbaf9d1be	-0.00190597
36	0xba84904d	-0.0010113806
37	0x3b17191b	0.0023055736
38	0xba4f1178	-0.00078990264
39	0x3a2c5c2b	0.00065750134
40	0xbb1d1a4b	-0.002397197
41	0x3a0b8324	0.00053219707
42	0xbb0ac761	-0.0021175968
43	0xbb305a84	-0.002690942
44	0x3a2fa56c	0.000670037
45	0xbb0fc76f	-0.002193894
46	0xba3bab83	-0.0007159041
47	0x3b2064da	0.0024474175
48	0xbb23eb96	-0.0025012246
49	0xbb216ca4	-0.0024631405
50	0xb788eff6	-1.6324204e-05
51	0x3b265bab	0.0025384228
52	0x3b2bee11	0.0026234428
53	0x3b40144f	0.002930898
54	0xbb1d70e5	-0.002402359
55	0x3b2f5e35	0.0026759033
56	0xbb27fb2f	-0.0025631895
57	0xbb2fca61	-0.0026823508
58	0xbb352064	-0.0027637715
59	0xbb1b416d	-0.002369012
60	0xbb2596e8	-0.002526695
61	0xbb2b885c	-0.0026173806
62	0xbadc72c7	-0.0016818874
63	0x3b34b39c	0.0027572876

BiasAdd/ReadVariableOp3 f4 [64]
0	0xbb0990aa	-0.0020990768
1	0x3a5c910c	0.00084139477
2	0xbafdf4a7	-0.001937528
3	0x3b02ea6c	0.0019976152
4	0xbb1854aa	-0.0023243823
5	0xbae258fd	-0.0017268952
6	0x3b1eb322	0.0024215658
7	0xbb224cd2	-0.0024765027
8	0x3ac94573	0.001535578
9	0x3b252605	0.0025199663
10	0xba8bb594	-0.0010658973
11	0xba72f663	-0.0009268282
12	0xbb08b49f	-0.0020859612
13	0xb91af962	-0.00014779487
14	0xbb1f30ca	-0.0024290555
15	0xbb10e7e6	-0.0022110878
16	0x3a863f60	0.0010242276
17	0x39ba1e2b	0.00035499161
18	0x3b2dec5b	0.0026538584
19	0xba70f8f8	-0.00091923727
20	0x3ac36cc8	0.0014909739
21	0xbaa29ca9	-0.0012406308
22	0xbb0c6a37	-0.0021425614
23	0x3b286c91	0.0025699476
24	0x3a188bbe	0.0005819163
25	0x3a014854	0.0004931737
26	0xbb23c2f5	-0.002498803
27	0x3b2db4bb	0.0026505429
28	0xbb2e3b05	-0.0026585471
29	0xbaefbb24	-0.0018290025
30	0xbab2ab7d	-0.001363143
31	0xbb07e14d	-0.0020733655
32	0xbb2bd27f	-0.0026217995
33	0x3b21b825	0.002467641
34	0xbab708d3	-0.0013964422
35	0x3b364e5c	0.0027817702
36	0xbb1b017a	-0.0023652003
37	0xbb2ae86f	-0.0026078483
38	0xbb1b30c4	-0.002368019
39	0xbb28a096	-0.0025730482
40	0x3b28a9f8	0.0025736075
41	0xbb2caefe	-0.002634942
42	0xbb162d82	-0.0022915308
43	0x3af5c2f4	0.0018750117
44	0x3ae7b018	0.0017676381
45	0x3ad8fdb5	0.0016555103
46	0x3b166af4	0.0022951933
47	0x3acf2595	0.0015804047
48	0xb9ed14d8	-0.00045219692
49	0xbae4b361	-0.0017448479
50	0x3ae6cddb	0.0017608957
51	0xbb002bb1	-0.0019557292
52	0x3b18aece	0.002329755
53	0x3ac6a01e	0.001515392
54	0x3abce52a	0.0014411558
55	0xbaf77fcf	-0.0018882694
56	0x3b304195	0.0026894559
57	0x3b37f604	0.002807022
58	0xbb01c196	-0.0019799224
59	0x3950b5b5	0.00019904117
60	0xbb1f4ce0	-0.0024307296
61	0xbb203d20	-0.0024450496
62	0xbb0df96f	-0.0021663567
63	0xbab0171e	-0.0013434624

BiasAdd/ReadVariableOp4 f4 [76]
0	0x3a55e2fe	0.00081591296
1	0xbb0ced73	-0.0021503835
2	0xbb1e878d	-0.0024189681
3	0xba5dda3e	-0.00084630016
4	0xbaf4d1e8	-0.001867828
5	0x3a3e237a	0.0007253211
6	0xba95ffe2	-0.0011444057
7	0xbb1c2cf2	-0.00238305
8	0x3a8f97d8	0.0010955287
9	0xbae2603c	-0.0017271112
10	0x3a43608b	0.00074530457
11	0xba88896b	-0.001041693
12	0xbad47b75	-0.001621111
13	0x3ab0f3a3	0.0013500344
14	0xbaf2044f	-0.0018464419
15	0xbb070355	-0.0020601351
16	0x3adef7b7	0.0017011081
17	0xbaea09bf	-0.0017855688
18	0x3a0e91b4	0.00054385816
19	0xba2ddf56	-0.0006632706
20	0xbb2b41bb	-0.0026131708
21	0xbb040da9	-0.0020149744
22	0xbaa46dd0	-0.0012544934
23	0x3b0e2d7f	0.0021694598
24	0xba9eb4e6	-0.0012108355
25	0xb82c058a	-4.1013154e-05
26	0xbb01b4fa	-0.0019791708
27	0xbaa6f7eb	-0.001273868
28	0xbb186365	-0.0023252603
29	0xbb16945d	-0.0022976615
30	0xbabb9bab	-0.001431336
31	0xbaf22433	-0.0018473923
32	0xbb013d30	-0.0019720308
33	0x3b12f211	0.0022422115
34	0xbaac8d20	-0.0013164617
35	0x3a98a914	0.0011647069
36	0xbaf0a453	-0.0018359519
37	0x39e0d1eb	0.0004288101
38	0x3a89fb8d	0.0010527238
39	0xbb0db240	-0.0021621138
40	0x3b17499c	0.0023084646
41	0xbae180c2	-0.001720451
42	0x3ad71eb5	0.001641235
43	0xba513e07	-0.000798196
44	0x39680dea	0.00022130428
45	0xbae8c008	-0.0017757425
46	0xbaf9eb47	-0.001906731
47	0x3a23a191	0.0006242032
48	0xbac8cc06	-0.0015319593
49	0xbab36933	-0.0013687968
50	0xbb03896a	-0.0020070919
51	0xb9d46c77	-0.00040516604
52	0x3aa3919a	0.0012479306
53	0x3b2217bb	0.0024733383
54	0xbb03cec5	-0.0020112258
55	0x3b0d71b0	0.0021582656
56	0xba4ff5b5	-0.00079330365
57	0xb983ce9e	-0.0002514021
58	0xbafc826e	-0.0019264945
59	0xbac1ad21	-0.0014776328
60	0xbb03aaae	-0.0020090747
61	0x3acbc428	0.001554613
62	0x3a74cbef	0.000933825
63	0xbabbc8c2	-0.0014326798
64	0x3aa522a8	0.0012598829
65	0x3adfa20f	0.0017061847
66	0xbb18f1cd	-0.0023337484
67	0xbaa4920e	-0.0012555735
68	0x3b079209	0.002068641
69	0x399ec5d1	0.00030283493
70	0x3a651f55	0.00087403256
71	0xb998c329	-0.00029137105
72	0xbae45e30	-0.001742309
73	0xbb052988	-0.0020318944
74	0x3acd0095	0.0015640432
75	0x3b0dd2aa	0.0021640458

BiasAdd/ReadVariableOp5 f4 [76]
0	0xb9f59374	-0.00046839903
1	0x3acb536c	0.0015512533
2	0x3901ef9e	0.00012391663
3	0xbaf754ea	-0.0018869911
4	0x3aa06d2b	0.0012239566
5	0xba5e08c2	-0.0008469933
6	0x3a70a98a	0.0009180537
7	0x3ae5c3a5	0.001752962
8	0xba94accb	-0.0011343
9	0x39f6c9e8	0.00047071208
10	0xb9c79c95	-0.000380729
11	0xbb117f44	-0.00222011
12	0xb9b63ef9	-0.00034760663
13	0xbb14918c	-0.002266976
14	0xbb22c1c9	-0.0024834743
15	0x3ae97215	0.0017810488
16	0xbac60420	-0.001510743
17	0xbadadd48	-0.0016698027
18	0x3a183477	0.0005806158
19	0x390704f9	0.00012876456
20	0xba1e2720	-0.0006033052
21	0xba8ee857	-0.0010902983
22	0x398ceb0b	0.00026878002
23	0x3abe3f19	0.0014514654
24	0x3a867421	0.0010257998
25	0xbafadf0b	-0.0019139958
26	0xba1bf08b	-0.00059486245
27	0x39ba3cbd	0.00035521938
28	0x389e1429	7.537782e-05
29	0x3a29b408	0.0006473665
30	0xb96c736a	-0.00022549709
31	0x3aa88575	0.0012857156
32	0xbaaff7e3	-0.0013425316
33	0xba82f328	-0.0009990679
34	0xba33f72e	-0.0006865141
35	0x3adff3e0	0.001708623
36	0xbb0ade6a	-0.0021189698
37	0x3b0ee7c3	0.0021805621
38	0xbb0fcb38	-0.0021941196
39	0xbb0dfebb	-0.0021666724
40	0x3ae3197a	0.0017326318
41	0xbac626ae	-0.0015117729
42	0x3ae0e7f5	0.0017158972
43	0xbad4c3c9	-0.0016232665
44	0x3a81d932	0.0009906648
45	0xbb0792ea	-0.0020686933
46	0x3af5ecfd	0.0018762645
47	0xbaa9124a	-0.0012899127
48	0x3ac16139	0.0014753706
49	0xba95f961	-0.0011442119
50	0x3a5546d3	0.0008135859
51	0x3ad2af80	0.0016074032
52	0xbb018a9f	-0.0019766463
53	0x39aa419c	0.0003247381
54	0x397b30f4	0.00023955462
55	0xbacaec5d	-0.0015481819
56	0x3a705edb	0.0009169408
57	0xbae9eef2	-0.00178477
58	0x3adf318a	0.0017028314
59	0xbaa7df5a	-0.0012807653
60	0xbaaac846	-0.0013029657
61	0xbb09b057	-0.0021009648
62	0x3987100b	0.0002576116
63	0xbae1818c	-0.0017204746
64	0xbb0b0a42	-0.002121583
65	0x3b00e7a5	0.001966932
66	0xb9d21571	-0.00040070296
67	0xbb182910	-0.0023217835
68	0xb8bfef6b	-9.152185e-05
69	0xbb130b55	-0.0022437174
70	0x3a940998	0.0011294363
71	0x3ac933ad	0.0015350484
72	0xbab9a851	-0.0014164542
73	0xba9ff44d	-0.0012203545
74	0x3b0343b0	0.0020029359
75	0xbac5e3d9	-0.0015097811

BiasAdd/ReadVariableOp6 f4 [140]
0	0xbaa64358	-0.0012684865
1	0xbb1740e4	-0.002307945
2	0xbacad927	-0.0015476093
3	0x3ab8dfe5	0.0014104812
4	0x3a0534ab	0.00050813955
5	0xba991106	-0.0011678047
6	0xb6906162	-4.3028713e-06
7	0xbaaeaedc	-0.0013327259
8	0xba8d28b5	-0.0010769578
9	0xbacdc281	-0.0015698225
10	0xba8db20a	-0.0010810506
11	0x39ef0492	0.00045589037
12	0xb99a7612	-0.00029461138
13	0xba9618f1	-0.0011451525
14	0xba0bb51b	-0.0005329416
15	0xba3f8fdd	-0.0007307509
16	0x3ae42513	0.0017406069
17	0xbaf15ab2	-0.001841387
18	0xba45de5b	-0.0007548087
19	0xba29a8fc	-0.0006472019
20	0x3a9a1647	0.0011755907
21	0x3728ef7d	1.00693405e-05
22	0x39f68bb6	0.0004702487
23	0xbae4c12e	-0.0017452592
24	0x39e310f5	0.00043309448
25	0xba1fb22d	-0.0006091919
26	0xbb0fa531	-0.002191853
27	0xbaae9c1b	-0.001332167
28	0xbaf2e5fd	-0.0018531677
29	0xba4cc473	-0.00078112556
30	0x39983fc9	0.00029039223
31	0xb96f3fbd	-0.0002281656
32	0xb9d65caa	-0.000408863
33	0xbab79d72	-0.0014008714
34	0xb9ee15d7	-0.0004541117
35	0xb704b8d2	-7.910845e-06
36	0xb894c053	-7.093013e-05
37	0xbaf52195	-0.0018702025
38	0xb9cfc807	-0.0003963115
39	0x3a6b2828	0.00089705223
40	0xbacf424b	-0.0015812604
41	0xbae1f00c	-0.0017237677
42	0x3995db25	0.0002858277
43	0xb80a38a0	-3.29545e-05
44	0xbb079cc4	-0.0020692805
45	0x3ace2e49	0.0015730347
46	0xba9b4286	-0.0011845387
47	0xbaf3fb4d	-0.0018614322
48	0xbae36d00	-0.001735121
49	0xbac7138c	-0.001518832
50	0xba636370	-0.000867418
51	0xba815c03	-0.000986934
52	0xbb0037b8	-0.001956446
53	0x3902bc9d	0.0001246803
54	0x397696b5	0.00023516531
55	0x3a2034fa	0.000611141
56	0x3ae74459	0.001764427
57	0xba2afd01	-0.0006522686
58	0xbaae318d	-0.0013289914
59	0x3a09c81a	0.0005255953
60	0xb8d94804	-0.0001036078
61	0x3a76d458	0.0009415797
62	0xbb0197d1	-0.0019774328
63	0x38b31997	8.5401516e-05
64	0xbab5d9b0	-0.001387408
65	0xbaf9163b	-0.0019003818
66	0x394d8a40	0.00019601826
67	0xbab0c31d	-0.0013485883
68	0xbaf8e896	-0.0018990214
69	0x3a654873	0.00087464525
70	0xbaecc1ca	-0.0018063125
71	0xbab9e417	-0.0014182356
72	0x38d02f04	9.92697e-05
73	0xb97a0d01	-0.00023846702
74	0x3a30cc65	0.00067443243
75	0x3ae75dc2	0.0017651843
76	0xba481332	-0.0007632255
77	0xba39745e	-0.000707453
78	0xba99a140	-0.001172103
79	0xb951d591	-0.00020011353
80	0x39c88845	0.000382485
81	0xbabd4b60	-0.0014442019
82	0xbae8be51	-0.0017756914
83	0xb76b3097	-1.4018405e-05
84	0x3af0e331	0.0018378255
85	0x3ab71a96	0.0013969715
86	0x3ab7bcf7	0.0014018108
87	0xb9fa710a	-0.00047767936
88	0x3a98aa2b	0.0011647394
89	0xbae00755	-0.0017092029
90	0x393c1046	0.0001793514
91	0x3a1108db	0.00055326306
92	0x3ad34150	0.0016117487
93	0xbaa038c6	-0.0012223951
94	0xba167c43	-0.00057405623
95	0xb94c8237	-0.00019503465
96	0xba74ab4e	-0.0009333388
97	0xbae641b7	-0.0017567192
98	0xba23d61a	-0.000624986
99	0x3a183ade	0.0005807112
100	0xba7dcc49	-0.0009681625
101	0xba71fc9a	-0.0009231061
102	0x3afcb9bb	0.0019281426
103	0x3a9b096c	0.001182837
104	0xb8327c79	-4.255443e-05
105	0xb9b1c113	-0.00033903922
106	0xbabbeab6	-0.0014336917
107	0xba609af6	-0.0008568013
108	0x39c00ec9	0.0003663211
109	0x3a0fe8cf	0.0005489708
110	0x3944fd05	0.00018786274
111	0xba2f7add	-0.0006694028
112	0xba6d9b1d	-0.0009063946
113	0x3938a83d	0.00017610281
114	0xbaf53986	-0.001870916
115	0x3abb5d60	0.0014294796
116	0x3a299c02	0.00064700854
117	0xbac73748	-0.001519897
118	0xbaefe24a	-0.0018301692
119	0xba8a225f	-0.0010538808
120	0xba17b5bd	-0.0005787274
121	0xb9da8ebf	-0.00041686554
122	0xbab7bfe6	-0.0014018982
123	0xba9d7877	-0.0012014051
124	0xb9ece19b	-0.00045181517
125	0xbacdf8de	-0.0015714427
126	0xba1bce23	-0.00059434975
127	0xbae5bc52	-0.0017527437
128	0xbad5da5c	-0.0016315687
129	0xb8a3ae81	-7.8049496e-05
130	0xb9910c7b	-0.00027665854
131	0xbb02894f	-0.0019918268
132	0xb928aaed	-0.00016085403
133	0xba9e2f20	-0.0012068488
134	0xbad328d7	-0.0016110194
135	0xbad1728f	-0.0015979576
136	0xbac0be94	-0.0014705234
137	0x392d01a0	0.00016499171
138	0xba53a9b2	-0.0008074298
139	0x3ad54811	0.0016272088

BiasAdd/ReadVariableOp7 f4 [140]
0	0xbacc8ee8	-0.0015606554
1	0xba94e9a0	-0.001136113
2	0xbaa33e21	-0.0012454429
3	0xba27d55e	-0.00064023386
4	0xba173f12	-0.0005769591
5	0x39a80d85	0.0003205353
6	0xb9e24735	-0.00043159132
7	0xba3475e1	-0.00068840204
8	0xbae1cf25	-0.0017227872
9	0xb9e9519c	-0.00044502027
10	0x39faef02	0.0004786179
11	0xbacf6ccb	-0.001582527
12	0xb9846d31	-0.00025258356
13	0xba8ea5e5	-0.0010883181
14	0xbafac25b	-0.0019131409
15	0xba99e3ef	-0.0011740903
16	0xba1d14ff	-0.00059922034
17	0x3958cc2a	0.00020675422
18	0xba413bae	-0.00073712587
19	0xba4e2768	-0.00078641484
20	0xba1bf95d	-0.0005949939
21	0xb9be2362	-0.00036265986
22	0xb9e338dc	-0.00043339178
23	0xb7ee3e38	-2.8400784e-05
24	0x3882cf3c	6.2374835e-05
25	0x39cafb2a	0.00038715574
26	0xbae2f0fa	-0.0017314248
27	0x39f4b873	0.00046676732
28	0xb9e68a4b	-0.00043972055
29	0x39d11fa5	0.00039887163
30	0xba08b486	-0.00052148884
31	0xb95f7e5a	-0.00021314007
32	0x3958e433	0.00020684376
33	0xba1174c2	-0.00055487093
34	0xb9e9c972	-0.00044591312
35	0xba213bde	-0.00061505835
36	0x39dc7739	0.00042050498
37	0xba338bf7	-0.00068491645
38	0xba1d5d20	-0.00060029514
39	0x3a530337	0.000804949
40	0xbaef02d2	-0.0018235093
41	0xba2c211a	-0.0006566212
42	0xba7fa5ab	-0.00097521645
43	0xb9c23fcf	-0.00037050105
44	0xba15fc31	-0.00057214784
45	0xba1c357e	-0.00059588987
46	0xb88632b6	-6.3990636e-05
47	0xba245cee	-0.0006269951
48	0xba295350	-0.0006459253
49	0xba2dd73a	-0.00066314975
50	0x3a5ce85b	0.00084269576
51	0xba2f8051	-0.0006694841
52	0x3817eb39	3.6220274e-05
53	0xbacc2838	-0.0015575951
54	0x394dd28a	0.00019628755
55	0xb9193939	-0.00014612534
56	0xb9927c21	-0.00027939773
57	0xb9c16055	-0.00036883602
58	0xba1c5656	-0.0005963793
59	0xba454d4a	-0.00075264706
60	0xba2ead30	-0.000666338
61	0xb9cbc6e5	-0.00038867365
62	0x3acde011	0.0015707036
63	0xb8aa8314	-8.130647e-05
64	0xbafe3825	-0.0019395394
65	0xbaf43195	-0.0018630499
66	0xb9d0b66f	-0.00039808775
67	0x3a8c25ba	0.0010692396
68	0x39b6ea08	0.00034888112
69	0xbafd1e96	-0.0019311483
70	0xbab91d5a	-0.0014123127
71	0xb9aba391	-0.00032737528
72	0xba2c7d94	-0.0006579992
73	0xba4f72bc	-0.000791352
74	0xbae76fa4	-0.0017657173
75	0x392f00d7	0.00016689613
76	0xba8053c0	-0.0009790584
77	0xb92a525f	-0.00016243149
78	0xbaf2eeee	-0.0018534341
79	0xb6f3cff8	-7.266175e-06
80	0xbac00bc7	-0.0014651947
81	0xbb007b44	-0.0019604722
82	0xb9146e25	-0.00014155412
83	0xbad97c32	-0.0016592799
84	0xba12807c	-0.00055886037
85	0x3a02b4d3	0.00049860514
86	0xba041141	-0.00050379714
87	0xb9fa825c	-0.0004778084
88	0x39fcf4aa	0.00048247474
89	0xbabe2ebc	-0.0014509778
90	0xb9e1d4ae	-0.00043073803
91	0x39a91ad5	0.00032254183
92	0xba80c6e0	-0.0009824894
93	0xb99580f5	-0.00028515575
94	0xbae7755b	-0.0017658876
95	0xba03dbf8	-0.00050300313
96	0xba12f4c3	-0.00056059303
97	0xbafc53c2	-0.0019251036
98	0xba5a0319	-0.00083165016
99	0xba23087d	-0.00062192214
100	0xbac2011d	-0.0014801357
101	0xb882ec6c	-6.24292e-05
102	0xb87cc058	-6.0260616e-05
103	0xbab4a1f1	-0.0013781172
104	0xbaea0d65	-0.0017856775
105	0xba2a3e7e	-0.00064942974
106	0xba7659c5	-0.0009397532
107	0x393d8db1	0.00018077229
108	0xbae435f1	-0.0017411095
109	0xba3e32b5	-0.0007255481
110	0xb9a39100	-0.00031197816
111	0xbab03576	-0.0013443667
112	0xba43810b	-0.00074578886
113	0xba515a3a	-0.0007986162
114	0xba011560	-0.00049241446
115	0xba266c9c	-0.00063485815
116	0xb8f47a39	-0.000116575924
117	0xba856c3a	-0.0010179349
118	0xba44433e	-0.00074868265
119	0xbb04be8b	-0.0020255174
120	0x3a0dc1c9	0.00054075994
121	0xb9ba75db	-0.00035564494
122	0xba471439	-0.0007594261
123	0xba235826	-0.00062310917
124	0xb957994f	-0.0002056111
125	0xb80aa9c4	-3.305987e-05
126	0xba272a17	-0.00063768163
127	0xbaac9239	-0.0013166136
128	0xba0bc0f7	-0.0005331183
129	0xbafc88be	-0.0019266827
130	0xba5e33cb	-0.00084763457
131	0xbac1dac9	-0.0014789935
132	0x3a51f517	0.00080092385
133	0xb9bcc724	-0.00036006526
134	0xbae50ade	-0.0017474552
135	0xb9dda7cf	-0.00042277432
136	0xb9e98bb3	-0.00044545307
137	0xba084575	-0.0005198338
138	0xba0a9871	-0.0005286998
139	0xb88871d9	-6.506191e-05

embedding_lookup f4 [2, 1]
0	0xbd0893ae	-0.033343963
1	0xbc7dc759	-0.015489423

embedding_lookup1 f4 [2, 50]
0	0xbeab6d9a	-0.33482057
1	0xbf5abbce	-0.8544282
2	0x3cb69ec3	0.0222925
3	0xbf5cda21	-0.8627034
4	0xbfb037f6	-1.3767078
5	0xbdd5f4b6	-0.104470655
6	0xbf5d1f26	-0.86375654
7	0xbde3caa8	-0.11122638
8	0xbfaaaaa4	-1.3333325
9	0x3e061df6	0.13097367
10	0x3f970452	1.1798193
11	0xbfd4e1e8	-1.6631441
12	0x3f87d8fe	1.0613096
13	0x3f7edfdb	0.99560326
14	0x3f2feb0c	0.6871803
15	0xbe8bd52d	-0.27311078
16	0x3f0620fa	0.5239407
17	0xbfdecfac	-1.7407126
18	0x3ea8e030	0.3298354
19	0x3d041ae2	0.0322522
20	0xbfe3144d	-1.774057
21	0xbf6497f9	-0.8929439
22	0xbf1ec2d9	-0.62016064
23	0x3bd7dd44	0.006587656
24	0x3fb10ce5	1.383206
25	0xbbc37ff4	-0.005966181
26	0xbf311a9f	-0.69181246
27	0x3e28655f	0.1644492
28	0x3ff7ad41	1.9349748
29	0xbe442dc6	-0.19158086
30	0x3f4e3bfb	0.8056027
31	0xbf243733	-0.6414673
32	0xbdcbc27b	-0.099492036
33	0x3f7c91ac	0.9865978
34	0xbf857bcd	-1.0428406
35	0x3f2ab873	0.666877
36	0xbfa40132	-1.2812865
37	0x3f9b4236	1.2129581
38	0xbec94ce4	-0.39316475
39	0xbd3a2b44	-0.045451418
40	0xbec02a8b	-0.37532458
41	0xbc125604	-0.008931641
42	0xbf9c8ac4	-1.2229848
43	0x3f026ff8	0.509521
44	0xbf90462f	-1.1271418
45	0x3e8a6db3	0.2703682
46	0x3f13c8d9	0.57728344
47	0xbcdfe49e	-0.027330693
48	0xbf1b96a9	-0.60776764
49	0xbf91d910	-1.1394367
50	0x3fdfc569	1.748212
51	0xbf068ec1	-0.52561575
52	0xbf0b8009	-0.5449224
53	0x3fc57ee1	1.5429345
54	0x3f7d3bd0	0.9891939
55	0x3f07a3e0	0.5298443
56	0x3f69a188	0.912621
57	0xbf82b1b8	-1.0210485
58	0xbd975de6	-0.073909566
59	0xbecd8ffc	-0.40148914
60	0xbfd91386	-1.6959083
61	0x3fa003fc	1.2501216
62	0xbed60bc4	-0.4180585
63	0x3f7d265b	0.9888665
64	0xbfb2ec4d	-1.3978363
65	0x3eea6953	0.4578348
66	0xbfa6aa87	-1.3020791
67	0xbfc78794	-1.558825
68	0x3f8b9ad5	1.0906626
69	0x3fc010e2	1.5005152
70	0x3f80db92	1.0067008
71	0xbe372124	-0.17883736
72	0xbe69cf34	-0.22832948
73	0x3fb3614e	1.401407
74	0xbf6cbf91	-0.9247981
75	0x3f81e0ed	1.0146767
76	0xbedacfa9	-0.42736557
77	0x3f920bd1	1.1409856
78	0x3d1901bc	0.03735517
79	0x3df9a475	0.12189571
80	0xbe964633	-0.29350433
81	0x3ced04d0	0.028932959
82	0x3f819a0e	1.0125139
83	0xbeb895f0	-0.36051893
84	0x3fd06cac	1.6283164
85	0xbffa645f	-1.9561881
86	0x3f82ab9b	1.020862
87	0xbf1753c6	-0.59112203
88	0xbf01ab14	-0.5065167
89	0x3edd8bde	0.43270773
90	0x3f6f37e4	0.9344466
91	0x3f98f898	1.1950865
92	0x3e72c1f6	0.23706803
93	0x3f7f2c6b	0.9967715
94	0x3f2477c4	0.6424525
95	0x3ea1b8ff	0.31586453
96	0xbfa6a760	-1.3019829
97	0xbe6d1934	-0.23154145
98	0xbfa92451	-1.3214208
99	0x3fcbdb6c	1.5926337

embedding_lookup2 f4 [4, 1]
0	0x3cbfd64a	0.02341761
1	0xbd05a659	-0.032629345
2	0x3c8e9bdc	0.017408304
3	0x3d25a725	0.040442605

embedding_lookup3 f4 [4, 50]
0	0xbe1934dd	-0.14961572
1	0x3f021a17	0.5082106
2	0x3ee3341a	0.44375688
3	0xbeefaee5	-0.4681312
4	0xbf50dca9	-0.815867
5	0xbf50f887	-0.8162922
6	0xbeb183d4	-0.3467089
7	0xbf176ee3	-0.59153575
8	0x3e817e7a	0.25291806
9	0x3f363348	0.71172
10	0x3f99b9b0	1.2009792
11	0x3f919766	1.1374328
12	0x3d926066	0.07147293
13	0xbdcedb23	-0.10100391
14	0x3ed2789b	0.4110764
15	0xbf1c36cb	-0.6102111
16	0x3fb040fa	1.3769829
17	0x3fa3c587	1.2794656
18	0x3fa665e9	1.299985
19	0xbf8dba8d	-1.1072556
20	0xbf2ca470	-0.6743841
21	0xbec9751b	-0.39347157
22	0xbe708851	-0.234895
23	0xbd7805e0	-0.060552478
24	0xbebc0a19	-0.36726454
25	0x3f4608ba	0.77357066
26	0x3e46ca4e	0.1941311
27	0x3d4da644	0.05020739
28	0x3f01f307	0.50761455
29	0x3e5a5ea3	0.21325164
30	0xbeb32508	-0.3498919
31	0xbf1fb30b	-0.6238257
32	0x3e170c9f	0.14750908
33	0x3f7065a3	0.93905085
34	0x3f1fea5d	0.62466985
35	0x3fac3f11	1.3456746
36	0xbd7c23e4	-0.061557665
37	0xbce1c7cc	-0.02756109
38	0x3faa9eb7	1.3329686
39	0x3e66d119	0.22540702
40	0x3f95be3c	1.169868
41	0x3e9d6f65	0.3074905
42	0xbf71cca2	-0.9445287
43	0xbf1fc8a4	-0.6241553
44	0x3e6dde22	0.23229268
45	0xbe5dcebf	-0.21660899
46	0xbe40326b	-0.18769233
47	0xbf9c3175	-1.2202593
48	0xbf73c697	-0.952249
49	0xbf86012c	-1.0469108
50	0xbef0e501	-0.47049716
51	0xbf335119	-0.7004562
52	0x3f107557	0.56429046
53	0x3f43d6b7	0.76499504
54	0xbe0b5c22	-0.13609365
55	0xbfc14200	-1.5098267
56	0xbf8afcc2	-1.0858386
57	0xbfb5e761	-1.4211236
58	0xbf988682	-1.1916049
59	0x3eac92bc	0.337057
60	0xbfb87757	-1.441142
61	0x3f3dbe20	0.7411823
62	0x3f4a8da2	0.79122365
63	0xbe8b679a	-0.2722748
64	0xbf31c6f9	-0.69444233
65	0x3eb6b79f	0.35686967
66	0x3eac6712	0.33672386
67	0x3f4f68e1	0.8101941
68	0xbf446b61	-0.7672635
69	0xbf45d8ea	-0.7728411
70	0xbe98d2f1	-0.29848436
71	0x3bc6d9e5	0.0060684555
72	0xbf23bd8c	-0.639611
73	0x3f8ff65d	1.1247059
74	0xbf4018df	-0.7503795
75	0xbfb11a20	-1.3836098
76	0x3d8b68e9	0.068071194
77	0x3ee99811	0.4562383
78	0x3e80f591	0.25187352
79	0xbe36f56a	-0.17867056
80	0x3ca81c12	0.020521197
81	0xbe9c70a0	-0.30554676
82	0x3f88f3c5	1.0699393
83	0xbd0d04eb	-0.03442852
84	0x3ec8b942	0.3920384
85	0x3f5c6f7c	0.8610761
86	0x3f6d7353	0.92754096
87	0xbf85b951	-1.0447179
88	0x3d7465fd	0.059667576
89	0xbf73099f	-0.94936556
90	0xbf508060	-0.81445885
91	0xbfa4274d	-1.2824494
92	0x3e933fbe	0.2875957
93	0xbf802361	-1.0010797
94	0x3eaf85b7	0.34281704
95	0x3eddca5b	0.43318447
96	0xbfa3bc72	-1.2791884
97	0x3e697e85	0.2280217
98	0x3f50e42b	0.81598157
99	0xbfc9164f	-1.5709933
100	0xbf424aaf	-0.7589521
101	0x3dd8873a	0.105726674
102	0xbe90c73d	-0.28277007
103	0xbf508db5	-0.8146623
104	0xbf274583	-0.6534044
105	0x3f447a51	0.7674914
106	0xbe95b2f5	-0.29238096
107	0x3e24ef23	0.16106848
108	0x3e89a321	0.2688227
109	0x3f8e5a1b	1.1121248
110	0x3e908bab	0.28231558
111	0xbf5b6f4e	-0.8571671
112	0x3ea9c8eb	0.331611
113	0x3ee4cac0	0.44685936
114	0xbe20d7df	-0.15707348
115	0x3e7dee2f	0.24797891
116	0xbf5d57c5	-0.8646205
117	0xbf995d08	-1.1981516
118	0xbf6da715	-0.9283307
119	0x3fa68396	1.3008907
120	0xbecca389	-0.39968517
121	0x3f104784	0.56359124
122	0x3f2430a2	0.6413671
123	0x3d21c864	0.039497748
124	0xbfa2a860	-1.2707634
125	0x3dd97387	0.10617738
126	0xbd8c8e65	-0.06863097
127	0x3e142395	0.14466698
128	0xbe89ee52	-0.26939636
129	0xbf9238c0	-1.1423569
130	0xbf65fa03	-0.8983461
131	0xbec075eb	-0.37589964
132	0x3f8beb67	1.0931214
133	0x3e167546	0.14693174
134	0x3f82464a	1.01777
135	0x3d875cdc	0.066095084
136	0x3db56ef6	0.08859055
137	0xbec76c6b	-0.38949904
138	0xbf686aa9	-0.9078775
139	0x3cb7832d	0.022401417
140	0xbf1b6bf6	-0.6071161
141	0x3e497c49	0.19676317
142	0x3f28988b	0.6585776
143	0x3e19da2a	0.15024629
144	0xbface11c	-1.3506198
145	0xbf65bd4c	-0.8974197
146	0xbe54ad8c	-0.20769328
147	0x3e7eb27a	0.24872771
148	0xbf68f45b	-0.90997857
149	0x3fab1354	1.3365273
150	0xbf0582fd	-0.52153
151	0x3f026256	0.509313
152	0xbf668d3f	-0.90059274
153	0x3d9e5e95	0.07732884
154	0xbf2433f7	-0.6414179
155	0x3ee2b0a1	0.44275382
156	0xbf0ba11a	-0.54542696
157	0x3e30a179	0.17249097
158	0xbe8c5cb5	-0.2741448
159	0xbf2b2f89	-0.6686941
160	0x3fa38a43	1.2776569
161	0xbeaa0231	-0.33204797
162	0x3e680ff5	0.22662337
163	0xbf9e38c3	-1.2361072
164	0xbe1026a8	-0.14077246
165	0x3fa56608	1.2921762
166	0xbfb82f8d	-1.4389511
167	0xbe059a20	-0.13047075
168	0x3e96fac5	0.29488197
169	0x3fc6ab69	1.552106
170	0xbf330502	-0.69929516
171	0xbef9b88d	-0.48773614
172	0xbf943967	-1.1580018
173	0x3fa3bc27	1.2791795
174	0xbd43beb4	-0.04778929
175	0xbea97073	-0.33093604
176	0x3ee217e8	0.44158864
177	0x3ce0d2dc	0.027444296
178	0xbecfd1ae	-0.4058966
179	0x3f39e9d8	0.7262244
180	0x3f0f2a8d	0.559243
181	0xbeffd014	-0.4996344
182	0xbe6945f8	-0.22780597
183	0x3f5e5eb7	0.86863273
184	0xbf44a62c	-0.7681606
185	0x3fa7932c	1.3091788
186	0xbf4202fc	-0.75785804
187	0x3eb9a42d	0.3625807
188	0xbf382376	-0.7192911
189	0x3fb91eae	1.4462488
190	0x3f7e05b2	0.9922744
191	0xbf50b23c	-0.81521964
192	0xbee542db	-0.4477757
193	0xbe961f43	-0.29320726
194	0x3f4e4721	0.80577284
195	0x3eb8a618	0.3606422
196	0x3d547e83	0.051878463
197	0x3f4751fa	0.7785946
198	0x3e97c4c8	0.2964232
199	0x3eee9fe9	0.46606377

MatMul f4 [140, 1]
0	0xbe0981e2	-0.13428453
1	0xbd3de22b	-0.04635827
2	0xbda99b45	-0.082815684
3	0x3e466d1d	0.19377561
4	0x3e3b30b3	0.18280296
5	0xbdc38524	-0.09546879
6	0x3d55018f	0.05200344
7	0x3e4e9fd8	0.20178163
8	0xbe488d7e	-0.19585225
9	0x3ccb6695	0.024829188
10	0x3cf10c5d	0.02942484
11	0xbdeadda8	-0.11468059
12	0x3dbd3b5a	0.09239836
13	0xbd17dc52	-0.03707535
14	0xbd341f51	-0.04397518
15	0xbe172107	-0.14758693
16	0x3de46c32	0.11153449
17	0x3dd9d4cf	0.10636293
18	0x3e447ada	0.19187489
19	0xbe2e7cd7	-0.1703981
20	0x3de1649e	0.11005519
21	0x3dab2144	0.08355954
22	0x3e3b6a5c	0.18302292
23	0x3dbf4f92	0.09341349
24	0x3cddcca0	0.027075112
25	0x3d90b175	0.07065097
26	0xbdbf5910	-0.09343159
27	0x3d3fa752	0.04679043
28	0x3dae9b9b	0.08525773
29	0xbe111df3	-0.14171581
30	0xbe382238	-0.17981803
31	0x3da01a25	0.07817487
32	0x3dc8ff2c	0.09814295
33	0x3dd72df4	0.10506812
34	0xbe51d46f	-0.20491193
35	0x3e1009d5	0.1406625
36	0x3b6ab699	0.0035814403
37	0x3e1b9945	0.15195186
38	0x3e5237ac	0.2052905
39	0xbcbac789	-0.022800224
40	0xbdf7228a	-0.12067135
41	0x3e3122f1	0.17298485
42	0xbe150036	-0.14550862
43	0x3e4ce1c5	0.20007999
44	0x3d80496a	0.062640026
45	0xbc50fe38	-0.012755923
46	0xbe38e81b	-0.18057291
47	0x3e45ca8c	0.19315547
48	0x3db2af24	0.08724812
49	0xbe1a5800	-0.15072632
50	0xbd5fda0b	-0.0546513
51	0x3e4f4c55	0.20243962
52	0x3e294ff4	0.16534406
53	0xbd9d9ce0	-0.07695937
54	0x3da09c19	0.07842273
55	0x3e2c1dce	0.16808245
56	0x3db70fab	0.08938535
57	0x3d5069eb	0.05088226
58	0x3e2b8758	0.16750848
59	0xbe33563d	-0.17513366
60	0x3e0c2bd8	0.136886
61	0x3e4b55f5	0.19857009
62	0xbe490795	-0.19631799
63	0x3e2089da	0.15677586
64	0xbd07a401	-0.03311539
65	0xbe335bbb	-0.17515461
66	0xbde4f752	-0.11179985
67	0xbc38a08e	-0.011268748
68	0x3ded69e6	0.11592464
69	0xbe187e89	-0.1489202
70	0xbe395887	-0.18100177
71	0xbdbdf9bb	-0.09276148
72	0x3dead9fa	0.11467357
73	0xbc0bb6d0	-0.008527473
74	0xbe266645	-0.1624995
75	0xbbf175de	-0.007368787
76	0xbd8c968f	-0.06864654
77	0x3e2efd6c	0.1708886
78	0xbe117cc4	-0.1420775
79	0x3d62fd2f	0.055417236
80	0xbdbe6cf0	-0.09298122
81	0xbe38ff02	-0.18066028
82	0x3bfd7013	0.0077343076
83	0xbe3e8e14	-0.18608886
84	0x3dcd6198	0.1002838
85	0x3d9a8356	0.075445816
86	0x3e2d7fdd	0.16943307
87	0xbe099d12	-0.13438824
88	0xbdec8d59	-0.115503974
89	0xbdf99f64	-0.121886045
90	0x3d90bddf	0.07067465
91	0x3da6511a	0.08120938
92	0xbd551476	-0.052021466
93	0x3e07402c	0.13208073
94	0xbe3eac9e	-0.18620536
95	0x3e42e52a	0.19032732
96	0xbd772ec9	-0.060347352
97	0xbe29d3f4	-0.1658476
98	0x3e512f7e	0.20428273
99	0x3e3faa39	0.18717279
100	0xbe02ff53	-0.12792711
101	0x3caad347	0.020852698
102	0xbdc6abc5	-0.09700731
103	0xbe1f96d2	-0.15584877
104	0xbda688cf	-0.08131563
105	0x3dcc02e4	0.09961489
106	0xbe3a47f1	-0.18191506
107	0x3da910d9	0.082551666
108	0xbe3c299e	-0.1837525
109	0x3e21dd73	0.15807132
110	0x3e4110fb	0.18854134
111	0xbe2bb067	-0.16766511
112	0x3e0b7b11	0.13621165
113	0x3e42b472	0.19014147
114	0x3db799b9	0.08964867
115	0xbd7da0f7	-0.061921086
116	0x3c98f653	0.018672144
117	0xbe004827	-0.12527524
118	0x3e43acd3	0.19108896
119	0xbe34711b	-0.17621271
120	0x3c81befb	0.015838137
121	0x3daef735	0.08543245
122	0xbe33313e	-0.17499253
123	0xbc293010	-0.0103264
124	0x3e4bd1d5	0.19904263
125	0x3d8fe11f	0.0702536
126	0xbdfe9c02	-0.124321
127	0xbe0eaeef	-0.1393392
128	0xbdad5c3a	-0.084648564
129	0xbdb3db3b	-0.08782049
130	0xbdc3b5a1	-0.09556127
131	0xbc9835df	-0.018580375
132	0xbc77fc2b	-0.015135805
133	0x3da1b02d	0.07894931
134	0xbe351e7c	-0.1768741
135	0x3e42acb3	0.19011192
136	0x3da79922	0.08183505
137	0x3d960f25	0.07327107
138	0x3dca6cb2	0.09884013
139	0x3d1f99f2	0.038965173

MatMul1 f4 [140, 140]
0	0x3d573e0b	0.052549403
1	0x3ca6df36	0.020370107
2	0xbbb40cd7	-0.0054946947
3	0xbdf1684f	-0.117874734
4	0xbdb06c1b	-0.086143695
5	0xbe13416b	-0.14380424
6	0x3bda1f80	0.006656587
7	0x3e01b0da	0.1266512
8	0x3de1c75a	0.110243514
9	0x3c68ec81	0.014216543
10	0xbd86d3f1	-0.06583393
11	0x3dc06f0c	0.093961805
12	0xbdebcf4e	-0.115141496
13	0xbc0721e7	-0.008247829
14	0x3cd50520	0.02600342
15	0x3c40130c	0.011723291
16	0xbd82fcbd	-0.06395862
17	0xbe153d05	-0.14574058
18	0x3d068881	0.032845024
19	0x3db92167	0.09039574
20	0x3d790dfe	0.06080436
21	0xbdd969c3	-0.106158756
22	0xbd965f48	-0.07342392
23	0xbe04e8ca	-0.12979427
24	0x3e12af8d	0.1432478
25	0xbc512946	-0.012766188
26	0x3d6ee216	0.05832108
27	0xbbeebd1d	-0.0072857277
28	0x3da0a8d2	0.078447
29	0xbd727fea	-0.05920402
30	0xbe0ee45f	-0.13954304
31	0xbd0c77e8	-0.03429404
32	0xbd902a31	-0.07039297
33	0xbddd9411	-0.10819257
34	0x3e0c0b52	0.13676193
35	0xbdb157b4	-0.08659306
36	0xbdd33ef7	-0.10314744
37	0xbd2d69c5	-0.042337198
38	0x3c60e0b5	0.013725449
39	0x3c055600	0.00813818
40	0xbc0fe294	-0.008782048
41	0x3d02627d	0.031832207
42	0x3dcdc704	0.10047725
43	0xbdbea7f7	-0.093093805
44	0x3dc4bf05	0.096067466
45	0x3df54f1a	0.11977978
46	0xbcfb0b89	-0.030645149
47	0xbe05d54a	-0.13069645
48	0x3d1fa8f8	0.0389795
49	0xbde2e8ae	-0.110795364
50	0x3b1c8cbc	0.0023887595
51	0xbd2b4b12	-0.04181964
52	0xbd960896	-0.073258564
53	0x3dc69c7c	0.09697816
54	0x3d1aa46f	0.037754472
55	0xbd6b8e27	-0.057508614
56	0x3c722ffe	0.01478195
57	0x3d9efd2e	0.07763134
58	0xbe0d0f2d	-0.1377532
59	0x3b6fa949	0.0036569408
60	0xbc85f94a	-0.016354222
61	0x3d73b8da	0.05950246
62	0x3dcae4f6	0.09906952
63	0x3df65c35	0.12029306
64	0xbd942e13	-0.072353505
65	0x3e09cc6b	0.13456886
66	0x3e051cd7	0.12999283
67	0xbde5cca6	-0.11220674
68	0xbe13fcd0	-0.14451909
69	0x3d3b6c09	0.045757327
70	0x3e04957e	0.12947652
71	0x3d9302cc	0.07178268
72	0x3dee263d	0.11628387
73	0xbdfe3610	-0.12412655
74	0xbe06e845	-0.13174541
75	0xbdd192fb	-0.102331124
76	0xbdffcb6a	-0.1248997
77	0x3e0d853f	0.1382036
78	0x3c10291a	0.008798862
79	0xbbb1c31e	-0.005424871
80	0xbdb49f82	-0.08819486
81	0xbd519002	-0.051162727
82	0x3d3559b9	0.04427502
83	0xbda55d23	-0.08074405
84	0x3e000e95	0.12505563
85	0x3d8259fb	0.06364819
86	0x3d75aaa8	0.059977204
87	0xbdb372d0	-0.08762133
88	0xbde84b3f	-0.11342477
89	0x3d04314e	0.032273583
90	0xbdbfeac3	-0.09370949
91	0x3dd26d26	0.10274725
92	0x3d53f234	0.051744655
93	0xbdf3db24	-0.11907032
94	0x3d441264	0.0478691
95	0x3dcb8a04	0.09938434
96	0xbe0790c9	-0.13238825
97	0x3d15ea24	0.036600247
98	0x3d63e69f	0.05563986
99	0xbcd83c8b	-0.026396057
100	0x3df32e94	0.118741184
101	0x3da9b96a	0.08287318
102	0xbd0162f3	-0.031588506
103	0xbda15fbb	-0.07879587
104	0x3d9bf493	0.07615008
105	0xbd081e62	-0.0332321
106	0x3de66d1f	0.11251282
107	0xbcca3622	-0.024684016
108	0x3c04f6eb	0.00811551
109	0x3d8c6960	0.06856036
110	0xbc9d4198	-0.019196317
111	0xbdc99498	-0.09842795
112	0xbd9f281e	-0.077713236
113	0x3c07ce48	0.008288927
114	0x3d5b865a	0.053594925
115	0xbdaf5639	-0.085613675
116	0x3df22e28	0.1182521
117	0x3db9fcf1	0.09081448
118	0xbdd76a17	-0.10518282
119	0x3c8e7043	0.017387515
120	0xbc7a7d48	-0.015288658
121	0xbe1504bc	-0.14552587
122	0xbe0b0e8f	-0.13579772
123	0xbca1ec5e	-0.019766029
124	0xbd86b220	-0.065769434
125	0xbdcc9b78	-0.09990591
126	0xbcb5cb0a	-0.022191543
127	0x3cc0473f	0.023471473
128	0x3d9b6d8e	0.07589255
129	0xbd0e70a6	-0.0347754
130	0x3e03b25e	0.1286101
131	0xbdaaa4fa	-0.08332248
132	0x3d3ec3d8	0.04657349
133	0x3dd9fe96	0.106442615
134	0xbdb3abc6	-0.087729976
135	0x3df44c43	0.11928608
136	0xbd3837bd	-0.04497503
137	0xbdde9424	-0.10868099
138	0xbe0fcf2e	-0.14043877
139	0xbdb97323	-0.09055164
140	0x3dbe2bc6	0.09285693
141	0xbe07fd21	-0.13280155
142	0x3dfd0bef	0.12355792
143	0x3dd99364	0.10623816
144	0xbc3a9440	-0.011387885
145	0x3d0586b6	0.032599173
146	0xbd73bb97	-0.05950507
147	0xbdc23430	-0.0948261
148	0xbd32f20c	-0.043687865
149	0x3e0f7c7b	0.1401233
150	0x3db7f66c	0.08982548
151	0x3e1298ad	0.14316054
152	0xbcbf50d0	-0.023353964
153	0x3db8975b	0.09013244
154	0x3d8b4c0b	0.068016134
155	0xbe063be1	-0.1310878
156	0x3debf4aa	0.11521275
157	0x3da9d261	0.0829208
158	0x3ddb4525	0.10706548
159	0x3d47361b	0.048635583
160	0x3dbe1f32	0.09283294
161	0x3dfd272d	0.12360988
162	0xbd6a16f2	-0.05715079
163	0x3dc357b6	0.09538214
164	0x3d8c609f	0.068543665
165	0xbcbe92c6	-0.023263346
166	0x3d945855	0.072434105
167	0xbe16493d	-0.14676376
168	0x3d9d4fe5	0.07681254
169	0xbe0acaa5	-0.13553865
170	0x3ddcf949	0.10789735
171	0xbd9347ed	-0.07191453
172	0x3dd4e757	0.10395687
173	0xbccc3811	-0.024929078
174	0x3dbdf848	0.092758715
175	0xbdbd501a	-0.09243794
176	0x3dc3a413	0.09552779
177	0x3d285529	0.04109684
178	0xbdf5044a	-0.11963709
179	0xbd8fd882	-0.070237175
180	0xbd56bc84	-0.052425876
181	0xbdbeab4d	-0.09310017
182	0xbd51647f	-0.05112123
183	0xbd011e6e	-0.03152316
184	0xbe060438	-0.13087547
185	0xbd742a64	-0.05961074
186	0x3d1c9245	0.03822543
187	0x3d049e73	0.03237767
188	0x3d745b72	0.05965752
189	0xbe02d507	-0.12776576
190	0xbd177011	-0.03697211
191	0x3db780e0	0.08960128
192	0xbd5da960	-0.054116607
193	0xbd61fd20	-0.05517304
194	0xbb59152e	-0.0033124196
195	0xbcbf6b73	-0.023366665
196	0x3de0174b	0.10941943
197	0x3df96932	0.121782675
198	0xbcbbaacc	-0.02290859
199	0xbd3b853e	-0.045781367
200	0x3e0af440	0.13569736
201	0x3d4f3043	0.050583135
202	0xbc0a4397	-0.008438966
203	0x3de3da5d	0.11125634
204	0x3e0bf28e	0.13666746
205	0x3e10bf2b	0.14135425
206	0x3dec3a41	0.115345486
207	0xbe05d748	-0.13070405
208	0xbca2a2b9	-0.019852983
209	0xbd8ca00e	-0.068664655
210	0xbda7d832	-0.08195533
211	0xbdc3b982	-0.09556867
212	0x3e0545cc	0.13014907
213	0xbdf151fd	-0.11783216
214	0x3e005456	0.12532172
215	0x3dc071b8	0.0939669
216	0x3ddbbc67	0.10729294
217	0xbda5db77	-0.080985
218	0x3e124354	0.14283496
219	0x3bee2fbf	0.0072688754
220	0xbd19ff5d	-0.03759705
221	0x3e0e4c98	0.13896406
222	0xbe163765	-0.14669569
223	0xbbf8665b	-0.007580561
224	0x3dcda48b	0.1004115
225	0x3d9c8377	0.076422624
226	0xbd2ebf30	-0.0426628
227	0xbc9d67a6	-0.019214462
228	0x3bbb5721	0.0057171737
229	0x3e117802	0.14205936
230	0x3da8a4d8	0.082345665
231	0x3a61ee41	0.00086185714
232	0x3df1f6a7	0.11814623
233	0xbc6d4454	-0.014481623
234	0xbd4888d1	-0.048958603
235	0x3c93d5da	0.018046308
236	0x3ddde57c	0.10834786
237	0x3d4154a6	0.047199868
238	0xbcba5ece	-0.022750285
239	0x3dbf2fc2	0.09335281
240	0x3d4b1c5d	0.049587596
241	0x3d9cd489	0.07657725
242	0xbde09912	-0.10966696
243	0x3d865336	0.0655884
244	0x3d03e267	0.032198336
245	0xbda978ad	-0.0827497
246	0xbd24d01a	-0.040237524
247	0xbd51ffcc	-0.051269338
248	0x3da49723	0.080366395
249	0xbcf60811	-0.030033143
250	0xbe035089	-0.1282369
251	0xbd02ac22	-0.03190244
252	0x3c9cfef6	0.019164544
253	0xbc308a7f	-0.010775208
254	0x3d2e6a2b	0.04258172
255	0x3d04dd56	0.032437645

MatMul2 f4 [76, 140]
0	0x3dd633d1	0.10459102
1	0x3d0a312c	0.0337383
2	0x3c99dd66	0.018782329
3	0x3de97a7d	0.11400316
4	0xbd23e790	-0.040015757
5	0x3dc79ad2	0.097463265
6	0xbcefce99	-0.029273318
7	0xbd9a8ea2	-0.07546736
8	0xbdc3342f	-0.095314376
9	0xbde9a339	-0.114080854
10	0xbe213604	-0.15743262
11	0x3dacf31d	0.08444808
12	0x3e1d9d2d	0.15391989
13	0x3e2213c3	0.15827851
14	0x3e0e588d	0.13900967
15	0x3dae297f	0.085040085
16	0xbda21f80	-0.079161644
17	0xbdb20cc6	-0.086938426
18	0x3d44a9fb	0.04801367
19	0x3dd3c895	0.10340992
20	0x3df49f92	0.11944498
21	0x3d6801be	0.056642286
22	0xbd84fb9e	-0.06493305
23	0xbe0c7534	-0.13716584
24	0xbdc9ab22	-0.09847094
25	0x3dd53171	0.10409821
26	0x3d1d3520	0.038380742
27	0x3dbfcc18	0.093651
28	0xbe02d936	-0.12778172
29	0xbdf31afb	-0.118703805
30	0x3e136ce4	0.14397007
31	0x3c31fd64	0.010863636
32	0x3ddc78ea	0.1076525
33	0xbe0184f4	-0.12648374
34	0x3da7784d	0.081772424
35	0x3d63fa25	0.05565848
36	0xbe1b1fa7	-0.15148793
37	0xbe03b802	-0.12863162
38	0xbd9d65a9	-0.07685406
39	0x3c481bfc	0.012213703
40	0x3d0a2b93	0.033732962
41	0xbe066e8d	-0.1312811
42	0x3d77c37e	0.06048917
43	0x3df8f750	0.12156546
44	0xbd10740f	-0.035266932
45	0xbe1d0a43	-0.15335946
46	0x3d487d8f	0.048947867
47	0x3e188140	0.14893055
48	0xbe20acf6	-0.1569098
49	0xbd8d8ef1	-0.069120295
50	0xbde2c7a8	-0.11073238
51	0xbddb32de	-0.107030615
52	0xbe072867	-0.13199006
53	0xbcc372a6	-0.02385838
54	0x3e1834c1	0.14863874
55	0x3c526256	0.012840828
56	0xbdc58913	-0.096452855
57	0xbe1dbf2b	-0.15404956
58	0x3db75563	0.08951833
59	0x3e1d34be	0.15352151
60	0x3ce34c30	0.02774629
61	0x3e0b61cd	0.13611527
62	0x3dec939e	0.11551593
63	0x3e24c42f	0.16090463
64	0xbcec6cef	-0.028860537
65	0x3d70bf34	0.058776096
66	0x3cef03c1	0.029176595
67	0x3e250ef6	0.16118988
68	0xbe152900	-0.14566422
69	0x3d3b6306	0.045748733
70	0x3cc9facd	0.024655724
71	0x3d9c2ab4	0.076253325
72	0xbd817100	-0.06320381
73	0xbdb8d874	-0.0902566
74	0x3da7adff	0.08187484
75	0xbd6159c3	-0.055017244
76	0xbc2e6ca8	-0.010646023
77	0xbdd3f7c3	-0.10349991
78	0x3d91e661	0.071240194
79	0xbe2717bc	-0.16317648
80	0x3e29af69	0.1657082
81	0x3dcdfdd7	0.10058182
82	0x3dcc3403	0.09970858
83	0x3d5a219c	0.05325471
84	0xbbf5d25b	-0.007501883
85	0xbdf69dfc	-0.12041852
86	0xbdf0af40	-0.11752176
87	0x3ccb771d	0.024837071
88	0xbe049c05	-0.12950142
89	0x3deb3982	0.11485578
90	0xbe1748e4	-0.147739
91	0xbe141588	-0.14461339
92	0x3c75005e	0.014953701
93	0xbd777ef4	-0.060423806
94	0xbe07a08e	-0.1324484
95	0xbde6bc8a	-0.1126643
96	0x3dea175f	0.11430239
97	0xbdc612d5	-0.09671561
98	0x3e0ff7b4	0.14059335
99	0x3d12b647	0.035818364
100	0xbd3ae4f2	-0.045628496
101	0x3bdc896b	0.0067302487
102	0xbc01f492	-0.007931845
103	0x3e039896	0.12851176
104	0xbe224fcb	-0.15850751
105	0xbdce265d	-0.10065911
106	0x3df8267c	0.12116715
107	0xbe22c70e	-0.15896246
108	0xbdf6c9a9	-0.12050182
109	0x3dcbf1e2	0.09958245
110	0xbdaf4a9e	-0.08559154
111	0xbda8fd01	-0.08251382
112	0xbcaf93f9	-0.021432864
113	0x3d94604a	0.07244928
114	0xbcf07edb	-0.029357364
115	0xbe14a52b	-0.14516132
116	0xbc802f89	-0.015647667
117	0x3d4e0d58	0.050305694
118	0xbd274e70	-0.04084629
119	0x3db13836	0.086532995
120	0x3d42d43d	0.047565687
121	0x3c101bfe	0.008795736
122	0xbdb6cd13	-0.089258336
123	0xbd9132a8	-0.0708974
124	0x3d5f6233	0.05453701
125	0x3d8d2a4e	0.068928346
126	0x3a621bf5	0.0008625382
127	0xbdc4b505	-0.09604839
128	0xbe227bfe	-0.15867612
129	0xbd339b9e	-0.04384958
130	0xbe0ea411	-0.13929774
131	0x3e1d6455	0.15370305
132	0xbe2558bb	-0.16147129
133	0x3d8a7dad	0.06762252
134	0xbd8ee400	-0.06977081
135	0x3d092b73	0.033488702
136	0x3d5e7ed9	0.05432019
137	0x3dbfb39d	0.093604304
138	0xbc65d745	-0.014028375
139	0x3e161bfb	0.14659111
140	0xbde6e914	-0.11274925
141	0x3db2ef65	0.08737067
142	0x3e1a86c2	0.15090469
143	0xbc4014e3	-0.01172373
144	0xbd539f61	-0.051665667
145	0xbe087f18	-0.13329732
146	0xbcc48130	-0.023987383
147	0xbe19521f	-0.14972733
148	0xbdf27a57	-0.11839741
149	0x3df378f9	0.11888308
150	0xbe0b5384	-0.13606077
151	0x3d803943	0.06260922
152	0x3a7eefe5	0.0009725078
153	0x3e1f4937	0.15555273
154	0x3e221c85	0.15831192
155	0xbd59b94d	-0.053155232
156	0xbdb20fcc	-0.08694419
157	0x3d0b3f58	0.033995956
158	0xbd36bf78	-0.044616193
159	0xbe0f9ad6	-0.14023909
160	0x3d50370d	0.05083375
161	0xbd91a317	-0.07111185
162	0xbcc64cc9	-0.024206536
163	0xbd9e259a	-0.07722016
164	0xbe25ff4d	-0.16210671
165	0xbd7ed0b0	-0.06221074
166	0xbd1fc60a	-0.039007224
167	0x3d97cb0d	0.07411776
168	0xbe1e21c8	-0.15442574
169	0xbccce2d9	-0.025010513
170	0xbd702800	-0.058631897
171	0x3dddc85c	0.10829231
172	0xbdb0d1c1	-0.086337574
173	0xbcd20443	-0.025636798
174	0xbe27caa4	-0.16385895
175	0x3c9a6541	0.01884711
176	0xbcd7f111	-0.026360067
177	0xbdff06f1	-0.12452496
178	0xbdff3fa2	-0.12463309
179	0xbd9a1d5c	-0.07525131
180	0xbdbe9739	-0.09306187
181	0x3c93fee2	0.018065874
182	0x3e26b24c	0.16278952
183	0x3d291383	0.041278373
184	0xbdbf12f4	-0.09329787
185	0xbd9c7039	-0.07638592
186	0xbe1ece3d	-0.15508361
187	0x3dd240f5	0.10266296
188	0xbde85d3f	-0.1134591
189	0xbe052319	-0.1300167
190	0xbc4e5eaf	-0.0125958165
191	0xbd9b5dba	-0.07586236
192	0x3de6ca47	0.1126905
193	0x3dd0c9d7	0.10194748
194	0xbcfecc2d	-0.031103218
195	0xbe235ae9	-0.15952648
196	0x3dcf6866	0.10127334
197	0x3d53c18a	0.051698245
198	0xbdc31f97	-0.0952751
199	0xbdb8ef01	-0.090299614
200	0x3d89b023	0.067230485
201	0xbddf84e6	-0.1091402
202	0x3da0b4c3	0.078469776
203	0x3e1df28a	0.15424553
204	0xbd6a316f	-0.05717605
205	0xbd20f770	-0.039298475
206	0xbe2382fe	-0.15967938
207	0x3dc57768	0.096419156
208	0xbda6c91e	-0.08143829
209	0xbd80b7dd	-0.06285069
210	0x3e11d3d5	0.14240964
211	0x3e13eeca	0.1444656
212	0x3dfaf789	0.12254245
213	0x3b6a78e2	0.0035777618
214	0x3de462fe	0.11151694
215	0xbceb32bb	-0.028710714
216	0xbdcdae2f	-0.100429885
217	0xbe233141	-0.15936758
218	0x3d482d69	0.04887143
219	0xbde5c7d7	-0.11219757
220	0xbdc6a5d6	-0.096995994
221	0x3e0f559d	0.13997503
222	0xbcd036e8	-0.025416806
223	0x3d8298e7	0.0637682
224	0x3dc9c9fe	0.0985298
225	0x3dc4a453	0.09601655
226	0x3e0012d6	0.12507185
227	0xbd759476	-0.059956037
228	0x3c8db36a	0.017297465
229	0x3dff47a4	0.12464836
230	0x3e19256f	0.14955686
231	0xbe224dd2	-0.15849999
232	0x3c9771f9	0.018486964
233	0xbe17e42d	-0.14833136
234	0x3e2bbc62	0.16771081
235	0x3bb92995	0.005650709
236	0xbd24df9b	-0.04025231
237	0xbd2ff34f	-0.042956647
238	0xbb417aef	-0.0029522737
239	0x3df63cb8	0.120233
240	0x3dc4a2c5	0.09601358
241	0xbd8489e8	-0.06471616
242	0x3c5e9976	0.013586393
243	0xbe21c1ad	-0.15796538
244	0xbddb593a	-0.10710378
245	0xbd3df967	-0.046380427
246	0xbd5e914b	-0.05433778
247	0xbda02f78	-0.07821554
248	0xbe23bc9c	-0.15989918
249	0xbdc2edbb	-0.09518
250	0xbddde078	-0.1083383
251	0xbe12ae76	-0.14324364
252	0xbc1ca88b	-0.009561668
253	0xbd12af2f	-0.0358116
254	0x3dd4bff4	0.10388175
255	0x3dbf8e8d	0.09353361

MatMul3 f4 [76, 76]
0	0x3d941a69	0.072316
1	0x3e2acb50	0.1667912
2	0x3e281401	0.16413881
3	0x3cfeb009	0.0310898
4	0x3e2428ad	0.16031142
5	0xbd519a52	-0.051172562
6	0xbdc7a09c	-0.09747431
7	0xbcba97f1	-0.02277753
8	0xbe006b61	-0.12540962
9	0xbb58c51c	-0.003307647
10	0xbe1ed064	-0.15509182
11	0xbe4088ec	-0.18802232
12	0x3d38084c	0.044929788
13	0xbe43d7e1	-0.1912532
14	0xbd95922c	-0.07303271
15	0xbe333553	-0.1750081
16	0x3e1c3cc4	0.15257555
17	0xbde79968	-0.11308557
18	0xbdc26a33	-0.09492912
19	0x3c10f72e	0.008847995
20	0xbdaed511	-0.08536733
21	0xbd80c85f	-0.06288218
22	0x3ce82c90	0.028341562
23	0x3d8495f4	0.06473914
24	0xbe061c55	-0.13096745
25	0xbd336f9c	-0.04380761
26	0x3e05e784	0.13076597
27	0x3d0696a5	0.03285851
28	0xbe462b94	-0.19352561
29	0x3e2f0310	0.17091012
30	0xbd4e7a5f	-0.05040967
31	0x3daccf7f	0.08438014
32	0x3d85cf64	0.06533697
33	0x3e33a175	0.1754206
34	0x3de4346a	0.1114281
35	0x3e232daa	0.15935388
36	0x3e08e8c4	0.13370043
37	0x3d917ed6	0.0710427
38	0xbe42e45e	-0.19032428
39	0xbde1457e	-0.10999583
40	0x3dfe4486	0.124154136
41	0xbd735691	-0.059408728
42	0x3e349789	0.17635931
43	0xbd25ba95	-0.04046114
44	0x3d9b35db	0.075786315
45	0x3dc65366	0.09683876
46	0x3de79213	0.11307158
47	0xbe46ac4d	-0.19401665
48	0xbde1970d	-0.11015139
49	0xbe38c39d	-0.1804337
50	0x3d9c3f7f	0.076292984
51	0x3da6eb59	0.08150358
52	0x3d61015a	0.05493293
53	0xbd985894	-0.0743877
54	0xbd8bb78c	-0.06822118
55	0x3dc702ac	0.097173065
56	0xbcd7dab0	-0.026349396
57	0x3d1e85d5	0.03870185
58	0xbe05290f	-0.13003944
59	0xbe200757	-0.156278
60	0x3ddf132b	0.10892328
61	0x3d52bc9a	0.051449396
62	0x3d273eaf	0.040831264
63	0x3dedfdf9	0.11620707
64	0x3cd03160	0.025414169
65	0xbd51915a	-0.05116401
66	0x3e3e0269	0.18555607
67	0xbdb5354f	-0.088480584
68	0x3e1f9893	0.15585546
69	0xbe0698de	-0.13144252
70	0xbe1a0ef0	-0.1504476
71	0x3d949902	0.072557464
72	0xbdfc3a0d	-0.1231576
73	0x3db0213b	0.08600088
74	0xbe0b5625	-0.1360708
75	0xbe38efff	-0.18060301
76	0xbe36567c	-0.17806429
77	0xbdb1e756	-0.08686702
78	0xbdbb9961	-0.09160114
79	0x3d7f7c13	0.062374186
80	0xbdbbd0a6	-0.09170656
81	0x3d9f8865	0.07789687
82	0x3e216e06	0.15764627
83	0xbe1f408e	-0.1555197
84	0x3d343860	0.043999076
85	0xbe161106	-0.14654931
86	0xbd80d1c8	-0.062900126
87	0xbd79dc88	-0.06100133
88	0xbda38986	-0.07985215
89	0x3e28958e	0.164633
90	0xbdafbb10	-0.08580601
91	0x3e08500b	0.13311784
92	0x3d9bdc69	0.07610399
93	0x3ded628f	0.11591064
94	0x3e0cb330	0.1374023
95	0xbdc37994	-0.095446736
96	0x3e3058c7	0.17221366
97	0x3e128441	0.14308263
98	0x3e46881a	0.19387856
99	0xbddbfd60	-0.10741687
100	0xbdbfd994	-0.093676716
101	0x3d9e8c10	0.077415586
102	0x3e3b84d4	0.18312389
103	0x3e1d28bc	0.1534757
104	0xbdbdf865	-0.09275893
105	0x3ace3fd0	0.001573557
106	0x39a28532	0.00030998286
107	0xbdfbe110	-0.12298787
108	0xbe31e397	-0.17371975
109	0x3e354878	0.17703426
110	0xbdf9c971	-0.12196625
111	0xbdb256fe	-0.08707999
112	0xbceb314e	-0.028710034
113	0xbe31123e	-0.17292115
114	0xbd95c895	-0.073136486
115	0x3e14eaa3	0.14542632
116	0x3dfb4f4f	0.12270986
117	0xbd6f401e	-0.058410756
118	0xbe3cf216	-0.18451723
119	0xbe195115	-0.14972337
120	0xbe1979d1	-0.14987876
121	0xbdf81244	-0.12112859
122	0x3d871f4a	0.06597765
123	0xbd0c8afa	-0.034312226
124	0xbd0f1396	-0.034930788
125	0xbda342d9	-0.079717346
126	0xbde560bf	-0.112000935
127	0xbdb1d0b1	-0.08682383
128	0xbe38104f	-0.17974971
129	0x3e176113	0.14783125
130	0xbde9ae34	-0.1141018
131	0xbe4254c3	-0.18977647
132	0x3df5c5f3	0.120006464
133	0x3deb4186	0.11487107
134	0x3dfbfea3	0.123044275
135	0x3e27d446	0.1638957
136	0x3e0b6be4	0.13615376
137	0x3e41e59c	0.18935245
138	0xbaf85205	-0.0018945342
139	0xbe48dde9	-0.19615902
140	0x3ddb0409	0.10694129
141	0x3ddf4fb7	0.10903876
142	0xbe24d28e	-0.16095945
143	0xbd0582f7	-0.0325956
144	0x3b6dc5f2	0.0036281315
145	0xbd8dc5ae	-0.0692247
146	0x3d2e00ca	0.04248122
147	0xbe23a3e3	-0.15980487
148	0x3e1328bb	0.14371006
149	0x3e015574	0.12630254
150	0xbd241a57	-0.040064182
151	0x3d823425	0.06357602
152	0xbe235b5a	-0.15952817
153	0xbdea9085	-0.11453346
154	0xbc7d8cfc	-0.015475508
155	0x3de71aa0	0.11284375
156	0xbe35c653	-0.17751436
157	0x3d8055af	0.06266343
158	0x3d6171e0	0.05504024
159	0xbe234162	-0.1594291
160	0x3e464724	0.19363075
161	0x3ddde164	0.108340055
162	0x3d819ead	0.06329093
163	0x3e341a11	0.17588069
164	0xbd8992d3	-0.067174576
165	0x3e46cc47	0.19413863
166	0x3deb7200	0.11496353
167	0x3d7cc753	0.061713528
168	0xbd0cf835	-0.034416396
169	0x3e334d20	0.1750989
170	0x3da91eef	0.08257853
171	0xbdf28fbd	-0.11843822
172	0xbe138505	-0.14406212
173	0xbd958115	-0.07300011
174	0x3df47e4e	0.11938153
175	0x3d034221	0.032045487
176	0x3d5f1259	0.054460857
177	0xbdb785bf	-0.08961057
178	0xbe28f97d	-0.16501422
179	0xbd9d236f	-0.07672774
180	0xba0484ed	-0.0005055208
181	0x3de343d5	0.11096922
182	0xbdeb38dc	-0.114854544
183	0xbdaa6281	-0.083195694
184	0xbdd15127	-0.10220557
185	0xbe11b773	-0.14230137
186	0xbd3544eb	-0.04425518
187	0xbdb04c29	-0.086082764
188	0xbd8c3d82	-0.06847669
189	0xbdd1ef53	-0.102507256
190	0x3e02909b	0.12750475
191	0x3d55b3c4	0.05217339
192	0xbe3c1935	-0.1836899
193	0x3d12c784	0.035834804
194	0xbdc32cd3	-0.09530034
195	0x3e3e8731	0.18606259
196	0x3db54269	0.08850557
197	0x3e47d418	0.19514501
198	0xbdc635c9	-0.096782275
199	0x3e1d3b61	0.15354683
200	0x3cc29756	0.023753803
201	0x3cc78f83	0.024360424
202	0x3e03c6ef	0.12868856
203	0xbd009082	-0.031387813
204	0xbdd4a9f1	-0.10383976
205	0xbe267437	-0.1625527
206	0x3d9686db	0.073499404
207	0xbe11f19f	-0.14252327
208	0xbd3d01fd	-0.046144474
209	0xbe44c96a	-0.19217458
210	0xbdfaf9d4	-0.12254682
211	0xbde31dd0	-0.11089671
212	0x3e16095a	0.14652005
213	0xbe3014fd	-0.17195506
214	0xbdbf92e7	-0.09354191
215	0x3e3ead57	0.18620811
216	0x3df24649	0.11829812
217	0xbe21f3a7	-0.15815602
218	0x3d9ae379	0.07562918
219	0x3db8d064	0.09024122
220	0xbd32eb9f	-0.043681737
221	0x3e35442e	0.1770179
222	0x3e07fffb	0.13281243
223	0x3e457272	0.19281939
224	0x3c740734	0.0148942955
225	0x3e2eec4c	0.17082328
226	0xbe235b73	-0.15952854
227	0x3e14b272	0.14521196
228	0x3dd9efa6	0.106414124
229	0xbd9b218d	-0.07574759
230	0xbd2058df	-0.039147254
231	0xbcdf9fea	-0.027297933
232	0x3c77dde8	0.01512859
233	0xbdabf5f1	-0.08396519
234	0x3d85f2cc	0.065404505
235	0x3e0ee857	0.13955818
236	0xbdefda00	-0.11711502
237	0x3e3c9e27	0.18419705
238	0xbe065542	-0.13118461
239	0x3d7c95ef	0.061666425
240	0xbe20ae2f	-0.15691446
241	0x3d4d8b85	0.050181884
242	0x3d2958bb	0.041344386
243	0xbddbd658	-0.10734242
244	0x3e312182	0.17297938
245	0x3e3c8783	0.18411069
246	0x3e1c0e7f	0.15239905
247	0x3c15febb	0.009154971
248	0xbdb538ab	-0.08848699
249	0xbe3d3622	-0.18477681
250	0xbd803e71	-0.0626191
251	0xbe0867c8	-0.1332084
252	0x3e3ae2f2	0.18250635
253	0x3e3692cd	0.17829438
254	0xbe072836	-0.13198933
255	0x3e39f387	0.18159305
